baseline/neuralsat/neuralsat-pt201/net.onnx (onnx, 14688 bytes, 14 tensors)

Weight_0_1 f4 [5, 24]
0.24110347 0.3027653 0.27333227 0.30589598 0.5199784 0.34549248 0.3715033 0.41368914
0.46006575 0.43222696 0.42993176 0.006906444 0.06354543 -0.026894266 0.002335878 0.007924508
-0.063479714 -0.038220637 0.063210554 -0.007975978 0.019451322 0.058397274 0.021630589 -0.029340245
0.4331511 0.04096751 0.3423384 0.36470124 -0.16304514 0.10582711 0.2129039 0.17968723
0.28923446 0.19100787 -0.10688117 0.018955078 0.01501391 -0.04213212 0.016565003 0.015336065
-0.012775051 -0.022579977 -0.01455713 -0.054916244 -0.016264977 -0.045110613 -0.060301565 -0.045739535
0.005819769 -0.033786643 0.0065025203 -0.053191442 -0.02859183 0.03992132 0.004918401 -0.024925724
0.012244655 -0.038418066 0.047872614 -0.028714547 -0.04315502 -0.05671484 0.029493751 -0.01315133
-0.06420964 0.056912 -0.05996358 -0.023813752 0.016038962 0.009815254 -0.061989598 0.050528523
-0.18506792 -0.33094358 0.22710861 -0.28609428 -0.34963027 -0.07199921 -0.06203458 -0.29896528
-0.026719606 -0.30051085 -0.109479256 -0.0016701319 -0.020697458 -0.01640241 0.03436463 0.032354344
0.06172099 -0.03441574 0.0070865033 0.050458804 0.035636976 0.047786567 0.03669838 0.048351027
-0.17490801 -0.52407116 -0.43565446 -0.48516533 -0.599075 -0.21445797 -0.50887835 -0.6015291
-0.5843164 -0.5094596 -0.40437663 -0.0049870424 -0.04892555 -0.009983528 -0.03610039 -0.041255638
0.0028083327 -0.0073780078 0.037010785 -0.038617082 -0.012283043 -0.047505517 0.035946734 -0.062204946
00000000: d4e3 763e 0e04 9b3e 35f2 8b3e 669e 9c3e
00000010: 4e1d 053f 64e4 b03e ae35 be3e 10cf d33e
00000020: bd8d eb3e da4c dd3e 0420 dc3e 744f e23b
00000030: 1b24 823d 5d51 dcbc 8815 193b ccd5 013c
00000040: a701 82bd 3e8d 1cbd 8974 813d adad 02bc
00000050: 6158 9f3c fb31 6f3d a232 b13c f45a f0bc
00000060: fbc5 dd3e 8ccd 273d fb46 af3e 1fba ba3e
00000070: 4ef5 26be e2bb d83d 7b03 5a3e eeff 373e
00000080: 8a16 943e 9197 433e 84e4 dabd ae47 9b3c
00000090: e7fc 753c bb92 2cbd 54b3 873c 1e44 7b3c
000000a0: 734e 51bc a5f9 b8bc 0781 6ebc dbef 60bd
000000b0: 213e 85bc e8c5 38bd c6fe 76bd 6159 3bbd
000000c0: c3b3 be3b dd63 0abd 1813 d53b 45df 59bd
000000d0: 6a39 eabc 8a84 233d 8a2a a13b 0831 ccbc
000000e0: ce9d 483c 435c 1dbd 1316 443d c53a ebbc
000000f0: 51c3 30bd d24d 68bd e19c f13c ad78 57bc
00000100: 5880 83bd 8f1c 693d 5f9c 75bd 0f15 c3bc
00000110: 2464 833c 29d0 203c cee8 7dbd fff6 4e3d
00000120: 7282 3dbe 7071 a9be 298f 683e f37a 92be
00000130: bd02 b3be 5274 93bd f917 7ebd fa11 99be
00000140: 13e3 dabc 8fdc 99be a936 e0bd 54e8 daba
00000150: b78d a9bc 595e 86bc edc1 0c3d fd85 043d
00000160: 26cf 7c3d 85f7 0cbd e635 e83b e4ad 4e3d
00000170: 14f8 113d d9bb 433d 0a51 163d ba0b 463d
00000180: 161b 33be 8729 06bf 1a0e dfbe 9767 f8be
00000190: fb5c 19bf df9a 5bbe da45 02bf d0fd 19bf
000001a0: c295 15bf f26b 02bf 740a cfbe 586a a3bb
000001b0: 2866 48bd f491 23bc 01de 13bd acfb 28bd
000001c0: 010c 383b 37c3 f1bb 9f98 173d f22c 1ebd
000001d0: d13e 49bc 2595 42bd e23c 133d 9dca 7ebd

Bias_1 f4 [24]
-0.28562745 -0.34692666 -0.27767792 -0.35194218 -0.48168302 -0.30693707 -0.38174725 -0.41359383
-0.47749877 -0.43466306 -0.3942929 0.39557004 0.0 0.0 0.0 0.0
0.0 0.0 0.0 0.0 0.0 0.0 0.0 0.0
00000000: c33d 92be 5fa0 b1be cd2b 8ebe c431 b4be
00000010: 289f f6be db26 9dbe 6074 c3be 92c2 d3be
00000020: b87a f4be 288c debe c2e0 c9be 2888 ca3e
00000030: 0000 0000 0000 0000 0000 0000 0000 0000
00000040: 0000 0000 0000 0000 0000 0000 0000 0000
00000050: 0000 0000 0000 0000 0000 0000 0000 0000

Weight_1_2 f4 [24, 24]
-0.0046519577 0.00027120876 -0.0014139836 0.00047325724 0.00019115927 -0.0017572513 -0.0005637212 -0.0013401081
0.00093626993 0.0003047301 -0.00026184798 -0.000102544436 -0.00034671059 -0.0006475458 -0.003526157 -0.0041261064
-0.00016507448 0.0011169021 -0.0015172557 0.0027673198 -0.0011481566 0.0012872558 -0.001726435 -0.00029752002
-1.081926 -0.40101498 -2.2485673 -0.750145 -2.8723326 -1.7993523 -2.9245212 -2.2281559
-2.2552676 -2.8291543 -2.8203955 -1.0525181 -0.00215208 0.0025798944 0.0007583419 -8.454465e-05
0.000522759 -0.0016421366 -0.00018118648 0.00067346793 -0.00071059354 0.0007130398 -0.0036790543 0.0011119777
-3.1570778 -3.8756487 -7.457933 -4.1215 -4.7744236 -7.3558187 -5.6201286 -7.8647265
-6.608483 -5.7453218 -5.660648 0.44308206 -0.0026211464 0.0035364549 -0.00024871528 0.00037591098
0.00012007056 0.003652856 0.0011999747 0.0016123784 0.0021646135 -0.0033464013 -0.005816394 -0.0028007508
-0.00045937533 -0.00010953369 -0.0032622973 0.001201882 3.097579e-05 -0.0016637163 -0.0021630358 -0.0017597958
-0.004580172 0.00061024574 -0.0015254086 0.002086762 -0.0032341292 -0.0018817863 -0.0014022293 0.0031561102
-0.00359402 -0.0037079845 0.004706351 -0.00014076469 -2.2335313e-05 0.0009150885 -0.0002431045 0.00072682055
0.2862332 0.03799325 0.14083904 0.1032646 0.09846611 0.5660236 -0.3583961 -0.3639332
-0.5901921 0.094996765 0.14901844 -0.022926327 -0.00044537886 0.000904314 0.003054548 0.0015357679
-0.0021262479 -0.0010228201 -0.0004513654 0.0006201461 -0.0010376464 -0.0022109838 -0.002649169 -0.0015220833
-1.5007513 0.41051084 -5.0509815 0.35904828 -3.6578722 -4.867123 -4.3446045 -5.1459227
-4.696592 -4.3595157 -4.3504095 -0.44901034 -0.0009220451 0.003441966 -0.00019109117 0.0019605453
0.002023395 0.0010887394 0.0010155712 0.0009840565 0.00017524252 -0.0052215834 -0.00032622094 -0.0006645841
0.04182209 -0.03972931 -0.3566743 0.19971055 -0.37916166 0.18365066 -0.14678335 0.1098262
-0.3467263 -0.056498338 -0.29794767 -0.08191018 6.5193206e-05 0.0022421463 -0.00019567828 0.00020001893
-0.0019617064 -0.0009332453 0.0016478731 -0.0020692789 0.00077563094 -0.0024359054 -0.001488369 -0.0004222662
2.402143 2.40026 0.49002323 2.3189278 -3.5523484 0.5682128 -0.28908443 0.45170236
0.6455288 -0.29724583 -0.12789635 2.2554543 -0.003437316 0.0006419827 0.0006484005 0.0010538689
0.0004638277 0.0032161 -0.0038525583 -0.0006355263 0.0015932508 0.0021565915 0.0010533836 0.0012409533
-6.5945945 -6.1653895 -4.5161715 -6.235198 -6.121023 -4.6120443 -1.7236845 -4.761972
-4.313874 -2.241905 -1.5874715 6.7107134 -0.002738291 -0.0022449829 -0.002952071 -0.0014734201
0.0019546982 0.0009558451 0.007532332 -0.0030532065 -0.0006762763 0.0035488403 0.014128414 0.0112605775
-0.84351677 0.35358012 -0.6612238 0.40431875 -0.52148914 0.27641732 -0.68111813 0.11646974
0.30760613 0.083882645 -0.2758383 0.48288727 -0.0017439326 0.0035751248 0.0021206876 0.0022545357
0.0012413631 -0.001528942 0.00041200384 -0.00065928913 0.0013205984 0.0028927794 -0.00045423885 0.002366785
-1.5021356 0.18906233 -4.9186754 0.1399366 -3.6407113 -4.8045006 -4.215792 -5.1288595
-4.578525 -4.245595 -4.1948614 -0.66138184 0.00095268135 -0.001239473 0.0020713892 -0.0034941328
00000000: 736f 98bb 0631 8e39 6b55 b9ba 831f f839
00000010: ed71 4839 9253 e6ba b0c6 13ba 91a6 afba
00000020: 0370 753a 2fc4 9f39 a448 89b9 200d d7b8
00000030: b5c6 b5b9 10c0 29ba 1917 67bb 4a34 87bb
00000040: d817 2db9 0465 923a a7de c6ba ec5b 353b
00000050: be7d 96ba 23b9 a83a 8c49 e2ba 76fc 9bb9
00000060: 8d7c 8abf d651 cdbe 87e8 0fc0 8109 40bf
00000070: 4cd4 37c0 2d51 e6bf 5b2b 3bc0 1b9a 0ec0
00000080: 4e56 10c0 dd10 35c0 5c81 34c0 eab8 86bf
00000090: e909 0dbb 7213 293b 77cb 463a 904d b1b8
000000a0: c309 093a f63c d7ba e0fc 3db9 ab8b 303a
000000b0: 2047 3aba 4aeb 3a3a 4a1c 71bb c8bf 913a
000000c0: 900d 4ac0 a10a 78c0 63a7 eec0 54e3 83c0
000000d0: 14c8 98c0 de62 ebc0 18d8 b3c0 d7ab fbc0
000000e0: b178 d3c0 add9 b7c0 0724 b5c0 a7db e23e
000000f0: 8ac7 2bbb dec3 673b 0066 82b9 eb15 c539
00000100: 64ce fb38 c164 6f3b 7848 9d3a 7156 d33a
00000110: 30dc 0d3b 4c4f 5bbb 7397 bebb cd8c 37bb
00000120: 50d8 f0b9 74b5 e5b8 44cc 55bb 7888 9d3a
00000130: 00ec 0138 0e11 daba b8c1 0dbb f3a8 e6ba
00000140: 4415 96bb e6f8 1f3a 38f0 c7ba 0fc2 083b
00000150: aff3 53bb 45a6 f6ba 02cb b7ba bed6 4e3b
00000160: a689 6bbb a801 73bb bc37 9a3b 3c9a 13b9
00000170: b85c bbb7 8de2 6f3a dee9 7eb9 1a88 3e3a
00000180: 288d 923e cf9e 1b3d 1c38 103e 647c d33d
00000190: 9aa8 c93d ece6 103f b27f b7be 7455 babe
000001a0: d416 17bf aa8d c23d 4a98 183e fecf bbbc
000001b0: bd81 e9b9 7c0f 6d3a d02e 483b d24b c93a
000001c0: 8558 0bbb 2610 86ba 3da5 ecb9 4d91 223a
000001d0: a301 88ba 27e6 10bb ae9d 2dbb a480 c7ba
000001e0: 9e18 c0bf 7a2e d23e a4a1 a1c0 2dd5 b73e
000001f0: 941a 6ac0 79bf 9bc0 0007 8bc0 66ab a4c0
00000200: 7b4a 96c0 2781 8bc0 8e36 8bc0 afe4 e5be
00000210: 66b5 71ba 9b92 613b a55f 48b9 7e7c 003b
00000220: ef9a 043b 08b4 8e3a ea1c 853a 75fb 803a
00000230: 4ec1 3739 d119 abbb a208 abb9 7c37 2eba
00000240: a44d 2b3d 33bb 22bd 049e b6be ec80 4c3e
00000250: 7a21 c2be eb0e 3c3e 604e 16be 8fec e03d
00000260: 1c86 b1be cd6a 67bd 998c 98be 86c0 a7bd
00000270: 56b8 8838 f9f0 123b fd2e 4db9 2cbc 5139
00000280: f98f 00bb 08a5 74ba 72fd d73a bd9c 07bb
00000290: b653 4b3a b6a3 1fbb 6015 c3ba 9c63 ddb9
000002a0: b6bc 1940 dc9d 1940 53e4 fa3e 5069 1440
000002b0: ad59 63c0 6576 113f e002 94be 8845 e73e
000002c0: 6041 253f 9b30 98be 43f7 02be 5d59 1040
000002d0: 9844 61bb bb4a 283a 6cf9 293a f921 8a3a
000002e0: e62d f339 34c5 523b 347b 7cbb 7399 26ba
000002f0: a0d4 d03a 9a55 0d3b b011 8a3a 7ca7 a23a
00000300: eb06 d3c0 df4a c5c0 7a84 90c0 be86 c7c0
00000310: 6cdf c3c0 de95 93c0 b2a1 dcbf 1362 98c0
00000320: 410b 8ac0 5f7b 0fc0 4432 cbbf 2abe d640
00000330: e674 33bb 9020 13bb 8877 41bb c61f c1ba
00000340: 651a 003b ae91 7a3a c8d1 f63b 4e18 48bb
00000350: 2248 31ba a993 683b dd7a 673c 497e 383c
00000360: b7f0 57bf 7408 b53e f745 29bf de02 cf3e
00000370: 5080 05bf 9286 8d3e c25d 2ebf b087 ee3d
00000380: 8d7e 9d3e aaca ab3d ad3a 8dbe 003d f73e
00000390: ab94 e4ba a44c 6a3b 3cfb 0a3b d5c0 133b
000003a0: 3cb5 a23a c866 c8ba 3802 d839 25d4 2cba
000003b0: ee17 ad3a c994 3d3b e826 eeb9 101c 1b3b
000003c0: fb45 c0bf 8e99 413e ca65 9dc0 8a4b 0f3e
000003d0: 6a01 69c0 78be 99c0 c5e7 86c0 9e1f a4c0
000003e0: 4783 92c0 eadb 87c0 4e3c 86c0 5250 29bf
000003f0: 5dbd 793a d075 a2ba 25c0 073b d2fd 64bb

Bias_2 f4 [24]
-0.083641484 -0.16998889 -0.7376874 -0.25770643 -0.92315465 -0.7029005 -0.9402889 -0.69414806
-1.0711141 -1.1166918 -2.2768943 1.411065 0.0 0.0 0.0 0.0
0.0 0.0 0.0 0.0 0.0 0.0 0.0 0.0
00000000: 3a4c abbd 9111 2ebe 15d9 3cbf 19f2 83be
00000010: dd53 6cbf 4af1 33bf c6b6 70bf b0b3 31bf
00000020: 441a 89bf c2ef 8ebf a3b8 11c0 c79d b43f
00000030: 0000 0000 0000 0000 0000 0000 0000 0000
00000040: 0000 0000 0000 0000 0000 0000 0000 0000
00000050: 0000 0000 0000 0000 0000 0000 0000 0000

Weight_2_3 f4 [24, 24]
-0.18459871 -0.4576521 -0.5315396 -0.44124243 0.04584874 -0.5376082 -2.5095582 -0.2304686
-0.6134576 -0.30286998 -0.6421017 0.02703439 -0.0014690119 -0.0032154622 -0.0001132748 -0.0007082173
-0.0010397903 0.0017381023 -0.0034533928 0.0008648282 -0.002237447 0.0011592375 -0.0032206352 0.0042722574
-0.40390807 -0.5503454 -0.42406195 -0.6993023 -0.1521124 -0.7298809 -2.6069422 -0.20978083
-0.110339835 -0.36626875 -0.50027657 0.0020657778 0.0010957596 0.0020704318 0.0016245745 -0.0003038863
-0.0018774915 -0.00034991064 0.0011524362 0.00024144957 -0.0003179706 0.0010653094 -0.0006174572 0.0008288764
-0.2552608 -0.45264083 -0.6068542 -0.5610017 -0.23615015 -0.3412497 -0.51383835 -0.25957078
-0.71641266 -0.8695429 -0.4950729 -0.14530739 0.0013791305 -0.0012644562 0.0010491692 -0.00090674753
-0.0001869988 0.0025725001 -0.0018899435 -0.00020952003 -0.0006152927 0.002585229 0.0004088719 0.0003846197
-0.31154603 -0.42517897 -0.47420573 -0.7135849 -0.07126273 -0.82501227 -2.611117 -0.26203728
-0.11647647 -0.1733483 -0.23909268 0.18666488 -0.0010494164 0.00029492396 0.00035400197 -0.0011102512
0.0004155849 0.0001995423 -0.00096692564 -0.001417214 -0.002761601 -0.0007535692 -0.001226821 -0.0013599892
-0.51573735 -0.7503085 -0.51219803 -0.5303668 -0.5263762 -0.10769189 -0.397691 -0.39164335
-0.34976223 -0.21900944 -0.3279878 -0.46675628 0.0018892542 0.0014679758 -0.00092206243 0.0006619324
0.0019992562 -0.00080403127 0.0016929444 0.0008264145 0.003883517 0.0005979774 -0.0004153434 0.001296564
-0.19234331 -0.353159 -0.50533956 -0.30323818 -0.8500042 -0.52750814 -0.50461775 -0.28672117
-0.56540424 -0.63810235 -0.16274191 -0.24685839 -0.002012306 0.0035869451 0.0012077645 0.001935028
0.0013752278 -0.0011816622 -0.003995957 -0.0009732593 0.00015645457 0.0022336214 -0.0007080125 -0.0010413573
-0.028190112 -0.16656135 -0.48445153 -0.70318574 -0.5380895 -0.60738516 -0.42972422 -0.21873675
-0.5952307 -0.7010412 -0.39651692 -0.54220074 -0.00043243894 0.001670884 0.0017897129 0.00049074646
-0.0020194836 0.0013883563 0.0007654397 0.0030865055 -0.0009935667 -0.0014671122 0.0024071464 0.0010293319
-0.13651885 -0.5137062 -0.575005 -0.52417076 -0.13023639 -0.57245034 -0.47112662 -0.1356508
-0.46843874 -0.26400423 -0.311992 -0.47800115 -0.001084908 0.0001604115 -0.0022084066 -0.0016634846
-0.00076350156 0.00084130524 -0.0010662582 -0.00016193655 -0.0003013737 0.0022207536 -0.0021426054 -0.0026611625
-0.55711603 -0.3102917 -0.260722 -0.6091111 -0.39426234 -0.3026251 -0.49273247 -0.33280396
-0.31418955 -0.86599654 -0.7014783 -0.35147828 0.00097237085 0.0001280846 0.00042442142 0.0029038705
-0.0020464424 -0.00020400422 -0.0010969838 -0.001476874 0.0024484224 -0.00040086845 -0.0007775569 0.0034280561
-0.12962994 -0.3683753 -0.77539146 -0.09732745 -0.86373425 -0.5569984 -0.50116163 -0.77187246
-0.28064698 -0.67172486 -0.43209314 -0.28935856 0.0018511506 -0.0014654311 -0.0021286474 -0.0026488723
-0.0021808757 0.00069550466 -0.0014051718 -0.0018352758 0.0032292928 -0.0017088165 0.0053488244 0.0037056708
-1.4542818 -0.9391976 -1.3163166 -1.1949311 -1.0275872 -0.9338856 -1.7158538 -1.58242
-0.92134464 -0.3017716 -1.1050445 -0.31173065 0.0024478955 0.014519157 -0.0040882602 0.008357074
00000000: 7207 3dbe 6051 eabe fb12 08bf 87ea e1be
00000010: e3cb 3b3d b1a0 09bf 9a9c 20c0 f6ff 6bbe
00000020: 8f0b 1dbf c611 9bbe c760 24bf 3a77 dd3c
00000030: dc8b c0ba 81ba 52bb f28d edb8 a9a7 39ba
00000040: 9349 88ba 09d1 e33a 5152 62bb a3b5 623a
00000050: 22a2 12bb 8ef1 973a 4b11 53bb 4bfe 8b3b
00000060: 0acd cebe 70e3 0cbf a61e d9be 7a05 33bf
00000070: 5ac3 1bbe 7ad9 3abf 24d8 26c0 c9d0 56be
00000080: daf9 e1bd 9487 bbbe 2012 00bf 0062 073b
00000090: 979f 8f3a 15b0 073b adef d43a ee52 9fb9
000000a0: 2916 f6ba 3674 b7b9 580d 973a a02d 7d39
000000b0: 4bb5 a6b9 daa1 8b3a dadc 21ba f448 593a
000000c0: 8bb1 82be 8ac0 e7be cc5a 1bbf cf9d 0fbf
000000d0: 58d1 71be 48b8 aebe e98a 03bf 76e6 84be
000000e0: d266 37bf 5d9a 5ebf 327a fdbe 76cb 14be
000000f0: f1c3 b43a 1cbc a5ba 4784 893a ccb2 6dba
00000100: 1c15 44b9 6497 283b fbb7 f7ba 9bb2 5bb9
00000110: 984b 21ba f26c 293b dc5d d639 c8a6 c939
00000120: f682 9fbe 0fb1 d9be 18cb f2be 80ad 36bf
00000130: 32f2 91bd 0134 53bf 8a1c 27c0 c029 86be
00000140: 378b eebd 3782 31be b6d4 74be 1425 3f3e
00000150: 928c 89ba 06a0 9a39 5799 b939 d985 91ba
00000160: dce2 d939 3a3c 5139 4879 7dba d0c1 b9ba
00000170: fafb 34bb 2c8b 45ba 48cd a0ba aa41 b2ba
00000180: 5d07 04bf 3814 40bf 691f 03bf 1ec6 07bf
00000190: 97c0 06bf 918d dcbd 289e cbbe 7a85 c8be
000001a0: 0914 b3be 0344 60be 04ee a7be aefa eebe
000001b0: daa0 f73a 1869 c03a 90b6 71ba 8885 2d3a
000001c0: f405 033b a0c5 52ba cae5 dd3a bda3 583a
000001d0: 9b82 7e3b 96c1 1c3a 73c2 d9b9 78f1 a93a
000001e0: a5f5 44be 42d1 b4be ef5d 01bf 0942 9bbe
000001f0: e099 59bf c60a 07bf a12e 01bf 1ecd 92be
00000200: 55be 10bf ad5a 23bf d1a5 26be 72c8 7cbe
00000210: e4e0 03bb f412 6b3b da4d 9e3a c4a0 fd3a
00000220: fd40 b43a 01e2 9aba 84f0 82bb 5322 7fba
00000230: f40d 2439 f361 123b ea99 39ba 277e 88ba
00000240: f3ee e6bc 0f8f 2abe 080a f8be fb03 34bf
00000250: 3cc0 09bf 987d 1bbf d004 dcbe 87fc 5fbe
00000260: 0a61 18bf 7077 33bf 4404 cbbe abcd 0abf
00000270: f9b8 e2b9 9001 db3a cd94 ea3a 70a5 003a
00000280: 5059 04bb 82f9 b53a caa7 483a f846 4a3b
00000290: 913a 82ba 1e4c c0ba 37c1 1d3b a6ea 863a
000002a0: 99cb 0bbe 4082 03bf 8733 13bf 0e30 06bf
000002b0: b05c 05be 1b8c 12bf 8237 f1be 0be8 0abe
000002c0: 34d7 efbe 902b 87be 6abd 9fbe 91bc f4be
000002d0: 7933 8eba 2234 2839 eaba 10bb 4809 daba
000002e0: b925 48ba 0a8b 5c3a b0c1 8bba 83cd 29b9
000002f0: b101 9eb9 108a 113b f46a 0cbb e666 2ebb
00000300: 289f 0ebf 8ede 9ebe 5b7d 85be b4ee 1bbf
00000310: c1dc c9be adf1 9abe 6e47 fcbe 4865 aabe
00000320: 74dd a0be f3b1 5dbf 1594 33bf f6f4 b3be
00000330: b4e6 7e3a 734e 0639 e184 de39 dd4e 3e3b
00000340: 9b1d 06bb f7e9 55b9 abc8 8fba ab93 c1ba
00000350: b675 203b a72b d2b9 f6d4 4bba 3da9 603b
00000360: b6bd 04be b09b bcbe 0e80 46bf 9d53 c7bd
00000370: b01d 5dbf 7297 0ebf 214c 00bf 6f99 45bf
00000380: f6b0 8fbe 29f6 2bbf 503b ddbe ce26 94be
00000390: 4fa2 f23a b513 c0ba c780 0bbb b498 2dbb
000003a0: 06ed 0ebb 8752 363a be2d b8ba a38d f0ba
000003b0: 8ba2 533b 5efa dfba 3145 af3b d7da 723b
000003c0: e825 babf 416f 70bf 107d a8bf 81f3 98bf
000003d0: fa87 83bf 2013 6fbf 19a1 dbbf bd8c cabf
000003e0: 3edd 6bbf cf81 9abe 1972 8dbf 299b 9fbe
000003f0: df6c 203b c2e1 6d3c d0f6 85bb 1cec 083c

Bias_3 f4 [24]
-0.6144489 -0.56487143 -0.3681492 -1.0259024 -0.5456059 -0.8578725 -1.0324519 -0.1333161
-0.1383297 -0.26862916 -0.42393076 1.107421 0.0 0.0 0.0 0.0
0.0 0.0 0.0 0.0 0.0 0.0 0.0 0.0
00000000: 864c 1dbf 6a9b 10bf 0d7e bcbe c550 83bf
00000010: d4ac 0bbf 889d 5bbf 6227 84bf 0484 08be
00000020: 4da6 0dbe c389 89be 740d d9be f9bf 8d3f
00000030: 0000 0000 0000 0000 0000 0000 0000 0000
00000040: 0000 0000 0000 0000 0000 0000 0000 0000
00000050: 0000 0000 0000 0000 0000 0000 0000 0000

Weight_3_4 f4 [24, 24]
-0.023105297 -0.027149588 -0.02117575 -0.028687606 -0.02832238 -0.03575161 -0.023745798 -0.025868077
-0.029833775 -0.020894269 -0.017962972 -0.025332695 0.0011990372 -0.00085039675 0.00010695915 -0.0003892675
-0.0018052387 -0.001458498 -0.0010407551 0.0003562379 0.004369983 0.002603651 -0.00232473 -0.0043396
-0.030260833 -0.028425429 -0.022001183 -0.025811622 -0.02295181 -0.028601855 -0.022748373 -0.025242357
-0.022947725 -0.023579651 -0.026355194 -0.020696182 0.003684672 0.0006553858 0.00014813073 0.0013442577
-0.0024774277 -0.0027360392 -0.005577496 -0.0029895022 0.0018441072 -0.00039016112 -0.0024535381 -0.0033154432
1.1111215 1.1123744 0.7324544 1.0025923 0.82986796 0.6761384 0.82673717 0.719989
0.8833035 1.0007129 0.7486987 1.0915302 0.0012935644 -0.0003490014 -0.00039915738 -0.0007552674
-0.00057605206 -0.0031515504 -0.00020497132 0.0036895683 0.0036485484 0.00010658706 0.0025095192 0.00011160548
-0.027697017 -0.02141016 -0.023059968 -0.029590143 -0.022594517 -0.018575273 -0.017756375 -0.023957675
-0.017802022 -0.02601554 -0.027767448 -0.020711362 -0.0004830035 0.0020007554 0.00033286962 0.0035492019
-0.0026521732 0.0007282404 0.003190884 -0.002597627 -0.0009915767 0.00014969509 0.0015191194 -0.0002878736
-0.027179612 -0.030308843 -0.018739123 -0.024928646 -0.026669063 -0.021280661 -0.018373096 -0.032128636
-0.025098637 -0.023135422 -0.026426442 -0.020471044 -0.00016471482 -0.00025314704 0.00091811817 0.00013325285
-0.00010402984 -0.0013603658 0.002540501 -0.00028782064 0.0008211866 -0.00095843326 -0.0005930701 -0.0016621867
-0.028735155 -0.029146297 -0.022540525 -0.033808384 -0.027080748 -0.02615131 -0.026308041 -0.023815475
-0.021567507 -0.028594311 -0.022496242 -0.027779361 -7.6216726e-05 0.002471398 0.0046698945 -0.000278396
0.003032554 0.00063741277 -0.0018233883 -0.0026796008 0.0035156268 0.000784554 0.00026859617 -0.00031708876
-0.018254356 -0.027244704 -0.022462865 -0.029278425 -0.020112725 -0.028624944 -0.02187942 -0.026484007
-0.023460738 -0.023894006 -0.035152074 -0.028690927 -0.0012750864 0.0006312476 -0.0012540604 0.00041944208
0.0020894888 -0.0017178026 -0.0022142725 -0.002369687 3.7149264e-05 0.0009339845 0.0047604786 -3.8677346e-05
1.0171435 1.1913983 0.8914643 1.0765994 0.79916936 0.9349041 1.0160954 1.0288806
0.5581522 1.0971583 0.8139027 1.5897888 -0.0016291593 0.0013802255 -0.0020079168 0.003272725
0.0007088611 0.00088162534 0.0019733596 0.0015598958 -0.001289403 -0.000317369 -0.001715966 -0.00041801814
1.2116745 0.80963194 1.0352405 1.4282284 1.2872097 1.095836 1.518616 1.4644257
0.93170977 0.8712129 1.1208947 1.4349045 0.00214342 -0.002787148 0.0039309436 -0.000951838
-0.001213325 0.00038846082 -0.0020328525 -0.0013284886 -0.0054121334 0.0012420401 0.0029890654 -0.00025425345
-0.024844037 -0.022324221 -0.02489848 -0.022017842 -0.018835662 -0.021982435 -0.02155708 -0.022044862
-0.023788868 -0.029499233 -0.03075923 -0.022443306 0.0031149175 0.0035077652 0.0006224141 0.0018100534
0.002052033 -0.0013038031 -0.0022659148 0.0010751159 0.002450186 0.0016158208 0.0022854053 0.0018770709
-0.01658124 -0.019881926 -0.023463529 -0.019305414 -0.022146305 -0.020131515 -0.022421036 -0.023260836
-0.028893346 -0.023221483 -0.025616141 -0.025450401 -0.0026473948 0.0012878453 -0.002571338 0.00236341
00000000: 5247 bdbc d068 debc c478 adbc 4502 ebbc
00000010: 5604 e8bc 4870 12bd 8c86 c2bc 4ae9 d3bc
00000020: f665 f4bc 752a abbc 1527 93bc 8386 cfbc
00000030: 0329 9d3a 29ed 5eba 424f e038 9916 ccb9
00000040: c29d ecba 122b bfba f269 88ba 71c5 ba39
00000050: 1332 8f3b 04a2 2a3b 7f5a 18bb 3433 8ebb
00000060: 91e5 f7bc 72dc e8bc d33b b4bc e572 d3bc
00000070: 6f05 bcbc 704e eabc cc5a babc 0fc9 cebc
00000080: defc bbbc 1d2a c1bc d9e6 d7bc 0a8b a9bc
00000090: 8a7a 713b 32ce 2b3a 8a53 1b39 ce31 b03a
000000a0: 575c 22bb 1f4f 33bb 6dc3 b6bb 86eb 43bb
000000b0: f8b5 f13a 8a8e ccb9 8acb 20bb e847 59bb
000000c0: 3b39 8e3f 4962 8e3f 2282 3b3f f254 803f
000000d0: 3a72 543f 6817 2d3f 0ca5 533f 3351 383f
000000e0: 2e20 623f 5c17 803f b8aa 3f3f 43b7 8b3f
000000f0: d28c a93a 2dfa b6b9 ff45 d1b9 23fd 45ba
00000100: 3302 17ba 3e8a 4ebb 92ed 56b9 afcc 713b
00000110: 7c1c 6f3b 7e87 df38 bf76 243b bc0d ea38
00000120: dbe4 e2bc 5c64 afbc 42e8 bcbc 0767 f2bc
00000130: 2318 b9bc 2c2b 98bc d175 91bc e342 c4bc
00000140: 8cd5 91bc 8b1e d5bc 8f78 e3bc e0aa a9bc
00000150: a23b fdb9 1b1f 033b 0185 ae39 ba99 683b
00000160: 15d0 2dbb 63e7 3e3a 261e 513b f33c 2abb
00000170: cbf7 81ba 78f7 1c39 301d c73a beed 96b9
00000180: c7a7 debc 404a f8bc ca82 99bc 2937 ccbc
00000190: 1479 dabc c854 aebc 2d83 96bc 5199 03bd
000001a0: a89b cdbc 7f86 bdbc 447c d8bc e4b2 a7bc
000001b0: 4cb7 2cb9 d2b8 84b9 dead 703a cab9 0b39
000001c0: 982a dab8 4d4e b2ba 897e 263b a2e6 96b9
000001d0: e644 573a 5e3f 7bba 4378 1bba bbdd d9ba
000001e0: fd65 ebbc 37c4 eebc e8a6 b8bc a97a 0abd
000001f0: 72d8 ddbc 463b d6bc f683 d7bc ac18 c3bc
00000200: 57ae b0bc 9e3e eabc 0a4a b8bc 8b91 e3bc
00000210: 8bd6 9fb8 2ef7 213b ea05 993b aef5 91b9
00000220: d0bd 463b 0c18 273a c2fe eeba 3e9c 2fbb
00000230: 6e66 663b 87aa 4d3a 5ed2 8c39 ef3e a6b9
00000240: 298a 95bc 4930 dfbc 0b04 b8bc 4fd9 efbc
00000250: 71c3 a4bc dc7e eabc 783c b3bc fdf4 d8bc
00000260: bc30 c0bc 5dbd c3bc 9ffb 0fbd 3c09 ebbc
00000270: cd20 a7ba 4f7a 253a 495f a4ba 90e8 db39
00000280: ceef 083b e427 e1ba 541d 11bb c04c 1bbb
00000290: b8d0 1b38 a4d6 743a cafd 9b3b 7c39 22b8
000002a0: c231 823f bd7f 983f 0137 643f 02ce 893f
000002b0: 5d96 4c3f e055 6f3f 6a0f 823f 5cb2 833f
000002c0: 10e3 0e3f af6f 8c3f ed5b 503f 337e cb3f
000002d0: 8489 d5ba afe8 b43a 4197 03bb 377b 563b
000002e0: ddd2 393a e01c 673a 7b53 013b 6b75 cc3a
000002f0: 2f01 a9ba 8c64 a6b9 44ea e0ba 7229 dbb9
00000300: 2618 9b3f 0a44 4f3f c382 843f 30d0 b63f
00000310: 4ac3 a43f 5b44 8c3f 0262 c23f 4d72 bb3f
00000320: 8884 6e3f cf07 5f3f 7a79 8f3f f3aa b73f
00000330: 9f78 0c3b 96a8 36bb 25cf 803b c484 79ba
00000340: 6e08 9fba 54aa cb39 9b39 05bb ae20 aeba
00000350: 4458 b1bb f3cb a23a 32e4 433b 524d 85b9
00000360: b985 cbbc 49e1 b6bc e6f7 cbbc c35e b4bc
00000370: 3f4d 9abc 8214 b4bc 7998 b0bc 6d97 b4bc
00000380: dfe0 c2bc 60a8 f1bc c8fa fbbc 06db b7bc
00000390: a523 4c3b 89e2 653b 8129 233a 503f ed3a
000003a0: 677b 063b 5fe4 aaba be7f 14bb e7ea 8c3a
000003b0: 4d93 203b f3c9 d33a bdc6 153b 0c08 f63a
000003c0: 61d5 87bc 6cdf a2bc 9636 c0bc 6326 9ebc
000003d0: 2b6c b5bc d9ea a4bc 52ac b7bc 828d bebc
000003e0: bdb1 ecbc fb3a bebc f1d8 d1bc 5c7d d0bc
000003f0: ea7f 2dbb ebcc a83a e583 28bb 71e3 1a3b

Bias_4 f4 [24]
-1.5057893 -1.4975027 -1.4975243 -1.5105891 -1.4967092 -1.5089617 -1.5110519 -1.4963683
-1.5102825 -1.4968504 -1.496906 1.3655744 0.0 0.0 0.0 0.0
0.0 0.0 0.0 0.0 0.0 0.0 0.0 0.0
00000000: b4bd c0bf 2bae bfbf e0ae bfbf fc5a c1bf
00000010: 2b94 bfbf a825 c1bf 266a c1bf ff88 bfbf
00000020: f050 c1bf cb98 bfbf 9e9a bfbf 24cb ae3f
00000030: 0000 0000 0000 0000 0000 0000 0000 0000
00000040: 0000 0000 0000 0000 0000 0000 0000 0000
00000050: 0000 0000 0000 0000 0000 0000 0000 0000

Weight_4_5 f4 [24, 24]
-3.9327948e-05 0.0011579476 0.0009052482 0.0010372992 0.0033123028 0.00084831077 0.00053991843 0.00026113202
0.00037117765 -0.00029835492 0.0027744288 -0.004110571 -0.0042592227 0.00033096087 -0.00095280923 0.0024326465
0.0018314122 0.00066278595 -0.00085358025 -0.0008817788 0.0035325834 -0.0010664903 -0.0003865391 -0.0013410307
0.0014192355 -0.002120747 0.0005242623 0.0020246606 -0.0015026464 -0.0012414643 0.0025369301 0.0036326954
-4.89151e-06 -5.056367e-05 -0.0005469514 0.0016577878 0.0038073303 -0.0028433097 -0.002118836 0.0016003118
0.0013958932 0.0015241104 0.00053326413 0.00041022885 -0.0005835434 0.0040354948 0.003374827 -0.00076820323
-0.0011516395 0.0011637856 0.0004165793 -0.0021513682 -0.004009839 0.000984842 0.0014560875 -0.0008741588
-0.0018118494 -0.0008882837 -0.0015309379 0.0009402858 4.377321e-05 -0.00254694 -0.0008769097 -0.0023130297
-0.0002847243 -0.0012903347 -0.0017718964 0.0010219458 -4.8574537e-05 0.001388215 0.00053234276 -0.0037299008
0.00041822984 -0.001190234 -0.0016880498 -0.001720268 0.0010223341 -0.001342755 0.0008837303 -0.0023988928
-0.0006622804 0.002928041 0.000649383 -1.1994649e-05 0.0007740281 0.00040881368 0.0013782792 0.0015668704
0.0010679082 0.0014314833 -0.0013917037 0.0037883162 -0.00018560706 -0.0006709821 -0.0011558329 -0.0005487015
0.0006479803 0.0006396276 -0.0004110111 0.0003160061 -0.0014134322 0.0008876847 0.0015444362 0.0033388778
0.00050450093 0.0007721508 -0.0024566962 0.0011099866 -0.0006175572 -0.0012972634 0.0057232114 0.0023347666
-0.002804906 0.0020093995 0.0015704419 0.003073603 0.0013899712 -0.0024890867 -0.001218504 0.0024066218
-0.000855654 0.00034265354 0.0014868423 6.506525e-05 -0.0015954588 -0.0013124093 0.00042779982 -0.0028188315
0.0011214176 -0.000981095 0.00013045866 -0.0004175183 0.0021496373 0.002061083 0.00062293484 -0.00093971245
-0.00037729455 -0.0012170866 0.0026364443 6.0301667e-05 0.0012174656 0.0018600432 0.00067557057 -0.0013347544
-4.5319583e-05 0.0015169012 -0.002897288 -0.0027788193 -0.0011857867 -0.0017570555 0.0023314536 0.0022029805
-0.00121883 0.00050726905 0.0013655296 0.0010039888 0.0024519947 -0.002702969 -0.0012171299 0.001265755
0.00017476405 -0.0015166762 0.0037015958 -0.002006195 0.00047913642 0.0031684274 0.00119679 0.0020042842
0.0011150622 0.0012420409 -0.0022768243 -0.0013302779 -0.00020895762 0.0011011831 0.0012265017 0.0003003055
0.0036664605 0.00017518824 -0.0019747973 -0.000155535 0.0013817544 0.002814192 0.0005381458 -0.001153742
8.654068e-05 0.00027394318 -0.004754512 -0.0027651233 -0.0012653826 0.0026582906 -0.001002232 -0.00177603
-0.0004042913 -0.00019270676 -0.0016346049 -0.0011592895 -0.00079651724 -0.0027183378 -0.0017161942 0.003220855
-0.0005765921 -0.0024769309 -0.00039343638 -0.0014801098 -0.0012010677 -0.0011274697 -0.0010717326 0.0021290842
-0.0038182277 -0.0029599187 0.0015941465 0.0033435212 -0.00012886236 -0.002190344 0.0018805449 -0.0022460504
-0.00096636394 -0.0016651221 -0.0037307637 -0.0017550286 -0.00044746758 0.0006658777 -0.0044000903 0.0013768872
-0.0012895428 -0.0015012263 -0.0011554498 0.00072624785 0.0012822179 0.00256242 -0.0001338498 -0.0059686746
-0.003388273 0.0010636848 0.0016543156 -0.0023220314 -0.00041593343 0.00041562074 -0.00068409997 -0.0034682998
-0.0012668947 -0.0025146077 0.00057173695 -0.00093520695 0.00012532658 -0.0031526557 0.0025041502 -0.004588059
2.6679372e-05 0.000881389 -0.0011096698 -0.0015973453 -0.0012996099 -0.0019358773 -0.005301433 -0.0013960606
00000000: 10f4 24b8 46c6 973a 2e4e 6d3a fcf5 873a
00000010: 3813 593b 2c61 5e3a 5089 0d3a 8ce8 8839
00000020: 9f9a c239 856c 9cb9 31d3 353b f8b1 86bb
00000030: f390 8bbb d184 ad39 f2c5 79ba 096d 1f3b
00000040: ff0b f03a d0be 2d3a cdc2 5fba 2c27 67ba
00000050: ea82 673b 7ac9 8bba 66a8 cab9 86c5 afba
00000060: a405 ba3a 3bfc 0abb a66e 093a 2bb0 043b
00000070: 72f4 c4ba a1b8 a2ba a042 263b 8412 6e3b
00000080: c021 a4b6 5414 54b8 4a61 0fba 214a d93a
00000090: 6784 793b d256 3abb 2bdc 0abb 8ec1 d13a
000000a0: 67f6 b63a a9c4 c73a c0ca 0b3a fc13 d739
000000b0: eff8 18ba 2f3c 843b 342c 5d3b 3f61 49ba
000000c0: 9cf2 96ba 2a8a 983a 5468 da39 f8fd 0cbb
000000d0: f864 83bb d015 813a 30da be3a ce27 65ba
000000e0: 947b edba b6db 68ba c0a9 c8ba 837d 763a
000000f0: 2099 3738 90ea 26bb 6ae0 65ba 3396 17bb
00000100: 0c47 95b9 7320 a9ba fa3e e8ba d0f2 853a
00000110: 83bc 4bb8 c4f4 b53a eb8c 0b3a 5a71 74bb
00000120: dc45 db39 a001 9cba 8d41 ddba 9e7a e1ba
00000130: d7ff 853a 62ff afba 23aa 673a be36 1dbb
00000140: e39c 2dba 60e4 3f3b 5b3b 2a3a a03c 49b7
00000150: 26e8 4a3a 0b56 d639 60a7 b43a 725f cd3a
00000160: 0ef9 8b3a 9ca0 bb3a d469 b6ba 6645 783b
00000170: 849f 42b9 d9e4 2fba 517f 97ba bcd6 0fba
00000180: 39dd 293a aeac 273a fa7c d7b9 9fad a539
00000190: ea42 b9ba 83b3 683a ae6e ca3a 13d1 5a3b
000001a0: 7c40 043a 2a6a 4a3a 8600 21bb f87c 913a
000001b0: 90e3 21ba f008 aaba c789 bb3b e202 193b
000001c0: 84d2 37bb 21b0 033b 49d7 cd3a 806e 493b
000001d0: b22f b63a f21f 23bb 36b6 9fba 6ab8 1d3b
000001e0: f84d 60ba 2ea6 b339 26e2 c23a a473 8838
000001f0: b71e d1ba 2605 acba 524a e039 25bc 38bb
00000200: 88fc 923a 1698 80ba bbcb 0839 5ce6 dab9
00000210: eee0 0c3b 3c13 073b 734c 233a 0957 76ba
00000220: 9ecf c5b9 a686 9fba 32c8 2c3b 6cec 7c38
00000230: 5e93 9f3a b1cc f33a c618 313a edf2 aeba
00000240: 8815 3eb8 c2d2 c63a 6de0 3dbb da1c 36bb
00000250: 666c 9bba 004d e6ba 4dcb 183b e15f 103b
00000260: 26c1 9fba 40fa 043a 92fb b23a 4698 833a
00000270: a5b1 203b 4b24 31bb 1a88 9fba b1e7 a53a
00000280: de40 3739 35cb c6ba 7996 723b 5e7a 03bb
00000290: 9a34 fb39 64a5 4f3b 9cdd 9c3a 4f5a 033b
000002a0: 4727 923a facb a23a c636 15bb b85c aeba
000002b0: a21b 5bb9 9355 903a 91c2 a03a 5272 9d39
000002c0: 0049 703b bcb2 3739 9a6b 01bb 1c17 23b9
000002d0: fc1b b53a 4f6e 383b 5a12 0d3a 2839 97ba
000002e0: 2c7d b538 08a0 8f39 bdcb 9bbb 1237 35bb
000002f0: 32db a5ba b736 2e3b 535d 83ba aec9 e8ba
00000300: 0ff7 d3b9 5411 4ab9 3d40 d6ba 4df3 97ba
00000310: 5ecd 50ba 2426 32bb ecf1 e0ba fb14 533b
00000320: 7126 17ba 0154 22bb 2346 ceb9 3e00 c2ba
00000330: 256d 9dba 9bc7 93ba 6179 8cba 1b88 0b3b
00000340: 3b3b 7abb 32fb 41bb aef2 d03a fa1e 5b3b
00000350: 3a1f 07b9 e08b 0fbb 9e7c f63a 7932 13bb
00000360: 9653 7dba 3a40 daba d47f 74bb fd08 e6ba
00000370: 159a eab9 4c8e 2e3a a22e 90bb ab78 b43a
00000380: e005 a9ba ccc4 c4ba 7672 97ba ab61 3e3a
00000390: 1810 a83a 46ee 273b 085a 0cb9 df94 c3bb
000003a0: ca0d 5ebb 576b 8b3a 9fd5 d83a 392d 18bb
000003b0: a411 dab9 ace7 d939 2c55 33ba 6a4c 63bb
000003c0: ef0d a6ba 1ecc 24bb 9ee0 153a ad28 75ba
000003d0: 196a 0339 c99c 4ebb ab1c 243b 6e57 96bb
000003e0: 84cd df37 040d 673a 5772 91ba 045e d1ba
000003f0: ac57 aaba 43bd fdba a5b7 adbb 05fc b6ba

Bias_5 f4 [24]
1.8386421 1.7603731 1.485333 0.9464922 0.9372075 1.445189 1.6249056 0.812182
1.6712217 0.6613959 1.7563636 -1.489989 0.0 0.0 0.0 0.0
0.0 0.0 0.0 0.0 0.0 0.0 0.0 0.0
00000000: a058 eb3f e853 e13f 641f be3f 504d 723f
00000010: d5ec 6f3f f4fb b83f e8fc cf3f 29eb 4f3f
00000020: 98ea d53f 3e51 293f 86d0 e03f f6b7 bebf
00000030: 0000 0000 0000 0000 0000 0000 0000 0000
00000040: 0000 0000 0000 0000 0000 0000 0000 0000
00000050: 0000 0000 0000 0000 0000 0000 0000 0000

Weight_5_6 f4 [24, 24]
-4.385161 -4.2597404 -4.2637653 -4.162293 -4.259974 -4.262418 -4.1662626 -4.3966393
-4.377412 -4.263293 -4.162444 1.4587504 0.003993538 -0.0009178687 -0.0030430004 0.0006750803
-0.0019385276 0.0012962085 0.0009859161 6.407939e-05 -0.0040199566 0.0030001134 -0.005251249 0.0012256203
-4.641891 -4.1267123 -4.1277037 -4.4515786 -4.130713 -4.127642 -4.452448 -4.705051
-4.6642413 -4.129242 -4.453611 1.6196841 -0.0015075436 -0.0008189484 -0.0015606277 0.001571793
-0.003283891 0.0015095164 -0.0015841607 -0.00063005666 -0.0024128105 0.00020388993 -0.0032880392 0.0033224116
-4.355918 -4.122388 -4.117136 -4.125617 -4.1168146 -4.1195354 -4.1190186 -4.3576593
-4.350077 -4.1163087 -4.1251955 2.2691524 0.0013507624 -0.0020151623 -0.00056572026 -0.0023949435
0.0017863468 0.0040043904 -0.0057696593 -0.0021972158 0.0018192775 0.0008246632 -0.003989857 -0.0020887642
-4.2983055 -4.1663632 -4.1684136 -4.0782676 -4.1699953 -4.1691318 -4.0912414 -4.3125954
-4.2977815 -4.1682014 -4.0917535 1.4179206 -0.0006190821 0.00074042124 -9.966784e-05 0.00047551162
-0.001115092 0.0003277573 0.0012740714 0.001175898 -0.0026768933 0.00013173855 -0.0010569883 -0.0003181423
-4.34326 -4.2184963 -4.218229 -4.132046 -4.2211537 -4.2205763 -4.136387 -4.3547797
-4.3638463 -4.217189 -4.1506543 2.5926101 -0.0011735669 -0.0003454391 -0.0012718011 0.00017437493
-0.0017618465 -0.0016320214 -0.0031719247 0.0005082665 0.0028151234 -3.1369273e-05 -0.0003881534 0.00016753345
-4.34328 -4.0788965 -4.079939 -4.124342 -4.083171 -4.0799065 -4.1156144 -4.3713856
-4.333178 -4.0776663 -4.133708 2.3709168 -0.00223129 0.0024967724 -0.00049173646 0.0030518812
0.0029157342 0.0005167561 -0.00011268038 -0.0020116065 -0.0009897347 -0.0055108583 0.0018325907 -0.0015198456
-4.3468127 -4.129632 -4.1311865 -4.11159 -4.130972 -4.1271224 -4.1323915 -4.3589096
-4.3522453 -4.1314383 -4.1281323 1.0092024 0.00044452408 0.0020095967 0.0021461376 -0.0015988656
-0.0036855224 -0.0023299078 0.0010493337 0.0007420401 -0.0035206366 -0.0024692588 -0.0008294064 -0.0014356317
-4.3734984 -4.281569 -4.2805977 -4.146445 -4.279808 -4.281241 -4.151285 -4.3876724
-4.360486 -4.2821393 -4.173787 1.5759454 0.0027114237 0.003821483 0.00046531076 0.001078179
0.0027634187 0.001568481 4.3986132e-05 -0.00045679958 -0.0008901364 -0.0017822443 -0.0012585549 0.00092120765
-4.3348293 -4.152427 -4.155071 -4.119136 -4.1569753 -4.156809 -4.1222725 -4.357473
-4.3373756 -4.1523104 -4.1445394 1.6599778 -0.0017675145 0.0012638815 0.00033371782 0.005756361
-0.0019947856 -0.0019650243 -0.0008198861 -0.0012161578 0.0002841815 0.0023856633 0.0018257074 -0.00075835915
-4.3366547 -4.1112633 -4.115351 -4.1127825 -4.11264 -4.1176357 -4.106432 -4.3361487
-4.320786 -4.117243 -4.1271286 1.1087089 -0.0005160848 -0.0020654316 0.0014783778 -0.0006806786
0.0005810819 0.0007168681 -0.0012369202 -0.0014252118 -0.0058708647 0.0011504791 0.0006966803 0.0011025384
-4.2949023 -4.055891 -4.0587716 -4.073883 -4.056118 -4.058717 -4.086694 -4.3298545
-4.30319 -4.057311 -4.0896444 1.511339 0.0019923828 -0.000119448756 0.0010960414 -0.0032034074
00000000: 3d53 8cc0 cb4f 88c0 c470 88c0 8131 85c0
00000010: b551 88c0 ba65 88c0 0652 85c0 45b1 8cc0
00000020: c213 8cc0 e56c 88c0 be32 85c0 55b8 ba3f
00000030: 3adc 823b 209d 70ba 136d 47bb dff7 303a
00000040: 3116 feba 8ae5 a93a db39 813a 5c62 8638
00000050: d7b9 83bb 8d9d 443b ab12 acbb fea4 a03a
00000060: 5f8a 94c0 070e 84c0 2616 84c0 5573 8ec0
00000070: cd2e 84c0 a515 84c0 747a 8ec0 c78f 96c0
00000080: 7741 95c0 c022 84c0 fb83 8ec0 cf51 cf3f
00000090: c598 c5ba b2ae 56ba fa8d ccba 9f04 ce3a
000000a0: 8c36 57bb f7da c53a 9da3 cfba 632a 25ba
000000b0: 3e20 1ebb 49cb 5539 257c 57bb d1bc 593b
000000c0: ae63 8bc0 9aea 83c0 94bf 83c0 0e05 84c0
000000d0: f2bc 83c0 3cd3 83c0 00cf 83c0 f271 8bc0
000000e0: d533 8bc0 cdb8 83c0 9a01 84c0 cb39 1140
000000f0: 110c b13a d010 04bb d84c 14ba 7cf4 1cbb
00000100: da23 ea3a 4337 833b 690f bdbb 2aff 0fbb
00000110: d374 ee3a 362e 583a 59bd 82bb a6e3 08bb
00000120: b88b 89c0 d952 85c0 a563 85c0 2b81 82c0
00000130: 9a70 85c0 8769 85c0 73eb 82c0 c800 8ac0
00000140: 6d87 89c0 e861 85c0 a5ef 82c0 6c7e b53f
00000150: e549 22ba d418 423a c404 d1b8 174e f939
00000160: 4728 92ba d7d6 ab39 befe a63a 9720 9a3a
00000170: d16e 2fbb 4c23 0a39 a48a 8aba 56cc a6b9
00000180: fcfb 8ac0 ecfd 86c0 bbfb 86c0 b939 84c0
00000190: b113 87c0 f60e 87c0 485d 84c0 5b5a 8bc0
000001a0: a1a4 8bc0 36f3 86c0 29d2 84c0 53ed 2540
000001b0: 5fd2 99ba 0d1c b5b9 90b2 a6ba 6ad8 3639
000001c0: c2ed e6ba 8de9 d5ba 11e0 4fbb 303d 053a
000001d0: ef7d 383b 8092 03b8 1181 cbb9 ebab 2f39
000001e0: 26fc 8ac0 5286 82c0 dc8e 82c0 9cfa 83c0
000001f0: 56a9 82c0 988e 82c0 1db3 83c0 64e2 8bc0
00000200: 65a9 8ac0 3e7c 82c0 5647 84c0 1abd 1740
00000210: d63a 12bb e4a0 233b e0e7 00ba 1202 483b
00000220: e715 3f3b ea76 073a d24e ecb8 28d5 03bb
00000230: fcb9 81ba 6e94 b4bb 8a33 f03a 8e35 c7ba
00000240: 1719 8bc0 f225 84c0 ae32 84c0 2592 83c0
00000250: ec30 84c0 6311 84c0 8d3c 84c0 307c 8bc0
00000260: 9845 8bc0 be34 84c0 a919 84c0 8b2d 813f
00000270: 030f e939 70b3 033b 37a6 0c3b 0791 d1ba
00000280: ce88 71bb 5eb1 18bb cc89 893a 7885 423a
00000290: 7bba 66bb 4ad3 21bb 856c 59ba ce2b bcba
000002a0: b3f3 8bc0 9d02 89c0 a8fa 88c0 adaf 84c0
000002b0: 30f4 88c0 edff 88c0 54d7 84c0 d067 8cc0
000002c0: 1a89 8bc0 4907 89c0 aa8f 85c0 94b8 c93f
000002d0: 24b2 313b d971 7a3b f4f4 f339 af51 8d3a
000002e0: 791a 353b 7d95 cd3a c07d 3838 9a7e efb9
000002f0: 0b58 69ba 329a e9ba 18f6 a4ba 337d 713a
00000300: ecb6 8ac0 afe0 84c0 57f6 84c0 f6cf 83c0
00000310: f105 85c0 9404 85c0 a8e9 83c0 6b70 8bc0
00000320: c8cb 8ac0 badf 84c0 11a0 84c0 277a d43f
00000330: f2ab e7ba d3a8 a53a d9f6 ae39 db9f bc3b
00000340: f3ba 02bb a3c7 00bb a0ed 56ba 7c67 9fba
00000350: 32fe 9439 ca58 1c3b 934c ef3a 9fcc 46ba
00000360: e0c5 8ac0 788f 83c0 f5b0 83c0 ea9b 83c0
00000370: bf9a 83c0 acc3 83c0 e467 83c0 bbc1 8ac0
00000380: e143 8ac0 74c0 83c0 7011 84c0 2cea 8d3f
00000390: dd49 07ba 315c 07bb 21c6 c13a 916f 32ba
000003a0: bf53 183a 34ec 3b3a 2820 a2ba 2cce baba
000003b0: 6260 c0bb accb 963a 6ca1 363a 0d83 903a
000003c0: d76f 89c0 dcc9 81c0 75e1 81c0 405d 82c0
000003d0: b8cb 81c0 02e1 81c0 32c6 82c0 2b8e 8ac0
000003e0: bcb3 89c0 7ed5 81c0 5ede 82c0 8e73 c13f
000003f0: a392 023b 9080 fab8 0ca9 8f3a 42f0 51bb

Bias_6 f4 [24]
-1.5541245 -1.6781026 -1.6780752 -1.541042 -1.6780171 -1.6779956 -1.5401635 -1.5488876
-1.5541154 -1.6780667 -1.5555711 0.57137245 0.0 0.0 0.0 0.0
0.0 0.0 0.0 0.0 0.0 0.0 0.0 0.0
00000000: 8ded c6bf 11cc d6bf 2bcb d6bf dd40 c5bf
00000010: 44c9 d6bf 8fc8 d6bf 1424 c5bf f341 c6bf
00000020: 41ed c6bf e4ca d6bf f41c c7bf 7745 123f
00000030: 0000 0000 0000 0000 0000 0000 0000 0000
00000040: 0000 0000 0000 0000 0000 0000 0000 0000
00000050: 0000 0000 0000 0000 0000 0000 0000 0000

Weight_6_7 f4 [24, 4]
-0.10426462 -0.14183949 -0.03062963 -0.05783067 -0.0895253 -0.12802184 -0.023858424 -0.053985797
-0.08957061 -0.12788405 -0.0238753 -0.05384478 -0.10459688 -0.14185247 -0.030980892 -0.057886653
-0.0895069 -0.12802143 -0.023908792 -0.054023854 -0.08957424 -0.12802184 -0.023848325 -0.053936407
-0.10451956 -0.1416888 -0.030969698 -0.05771871 -0.10418151 -0.14026175 -0.030480672 -0.05632582
-0.104512066 -0.14231223 -0.030830078 -0.05814075 -0.08957861 -0.12817572 -0.023850005 -0.05411985
-0.10168931 -0.13918734 -0.028887693 -0.05634253 -0.0020496803 0.00088170613 0.032299086 0.02962123
0.0 0.0 0.0 0.0 0.0 0.0 0.0 0.0
0.0 0.0 0.0 0.0 0.0 0.0 0.0 0.0
0.0 0.0 0.0 0.0 0.0 0.0 0.0 0.0
0.0 0.0 0.0 0.0 0.0 0.0 0.0 0.0
0.0 0.0 0.0 0.0 0.0 0.0 0.0 0.0
0.0 0.0 0.0 0.0 0.0 0.0 0.0 0.0
00000000: b088 d5bd 5f3e 11be fdea fabc dadf 6cbd
00000010: 0a59 b7bd 2818 03be be72 c3bc 3620 5dbd
00000020: cc70 b7bd 09f4 02be 2296 c3bc 588c 5cbd
00000030: e436 d6bd c641 11be a4cb fdbc 8e1a 6dbd
00000040: 654f b7bd 0d18 03be 5fdc c3bc 1e48 5dbd
00000050: b372 b7bd 2818 03be 905d c3bc 6cec 5cbd
00000060: 5a0e d6bd de16 11be 2ab4 fdbc 746a 6cbd
00000070: 1e5d d5bd c7a0 0fbe 9ab2 f9bc e7b5 66bd
00000080: 6c0a d6bd 4cba 11be 5c8f fcbc ff24 6ebd
00000090: fe74 b7bd 7f40 03be 1661 c3bc c7ac 5dbd
000000a0: 7c42 d0bd 2087 0ebe e2a5 ecbc 6dc7 66bd
000000b0: ee53 06bb 4c22 673a 0c4c 043d 39a8 f23c
000000c0: 0000 0000 0000 0000 0000 0000 0000 0000
000000d0: 0000 0000 0000 0000 0000 0000 0000 0000
000000e0: 0000 0000 0000 0000 0000 0000 0000 0000
000000f0: 0000 0000 0000 0000 0000 0000 0000 0000
00000100: 0000 0000 0000 0000 0000 0000 0000 0000
00000110: 0000 0000 0000 0000 0000 0000 0000 0000
00000120: 0000 0000 0000 0000 0000 0000 0000 0000
00000130: 0000 0000 0000 0000 0000 0000 0000 0000
00000140: 0000 0000 0000 0000 0000 0000 0000 0000
00000150: 0000 0000 0000 0000 0000 0000 0000 0000
00000160: 0000 0000 0000 0000 0000 0000 0000 0000
00000170: 0000 0000 0000 0000 0000 0000 0000 0000

Bias_7 f4 [4]
13459.6455 326.78745 43027.41 38252.188
00000000: 954e 5246 cb64 a343 6913 2847 306c 1547
